SSDDetector(
  (backbone): EfficientNet(
    (extras): ModuleList(
      (0): Sequential(
        (0): Conv2d(384, 128, kernel_size=(1, 1), stride=(1, 1))
        (1): ReLU()
        (2): Conv2d(128, 256, kernel_size=(3, 3), stride=(2, 2), padding=(1, 1))
        (3): ReLU()
      )
      (1-2): 2 x Sequential(
        (0): Conv2d(256, 128, kernel_size=(1, 1), stride=(1, 1))
        (1): ReLU()
        (2): Conv2d(128, 256, kernel_size=(3, 3), stride=(1, 1))
        (3): ReLU()
      )
    )
    (_conv_stem): Conv2dSamePadding(3, 40, kernel_size=(3, 3), stride=(2, 2), bias=False)
    (_bn0): BatchNorm2d(40, eps=0.001, momentum=0.010000000000000009, affine=True, track_running_stats=True)
    (_blocks): ModuleList(
      (0): MBConvBlock(
        (_depthwise_conv): Conv2dSamePadding(40, 40, kernel_size=(3, 3), stride=[1, 1], groups=40, bias=False)
        (_bn1): BatchNorm2d(40, eps=0.001, momentum=0.010000000000000009, affine=True, track_running_stats=True)
        (_se_reduce): Conv2dSamePadding(40, 10, kernel_size=(1, 1), stride=(1, 1))
        (_se_expand): Conv2dSamePadding(10, 40, kernel_size=(1, 1), stride=(1, 1))
        (_project_conv): Conv2dSamePadding(40, 24, kernel_size=(1, 1), stride=(1, 1), bias=False)
        (_bn2): BatchNorm2d(24, eps=0.001, momentum=0.010000000000000009, affine=True, track_running_stats=True)
      )
      (1): MBConvBlock(
        (_depthwise_conv): Conv2dSamePadding(24, 24, kernel_size=(3, 3), stride=(1, 1), groups=24, bias=False)
        (_bn1): BatchNorm2d(24, eps=0.001, momentum=0.010000000000000009, affine=True, track_running_stats=True)
        (_se_reduce): Conv2dSamePadding(24, 6, kernel_size=(1, 1), stride=(1, 1))
        (_se_expand): Conv2dSamePadding(6, 24, kernel_size=(1, 1), stride=(1, 1))
        (_project_conv): Conv2dSamePadding(24, 24, kernel_size=(1, 1), stride=(1, 1), bias=False)
        (_bn2): BatchNorm2d(24, eps=0.001, momentum=0.010000000000000009, affine=True, track_running_stats=True)
      )
      (2): MBConvBlock(
        (_expand_conv): Conv2dSamePadding(24, 144, kernel_size=(1, 1), stride=(1, 1), bias=False)
        (_bn0): BatchNorm2d(144, eps=0.001, momentum=0.010000000000000009, affine=True, track_running_stats=True)
        (_depthwise_conv): Conv2dSamePadding(144, 144, kernel_size=(3, 3), stride=[2, 2], groups=144, bias=False)
        (_bn1): BatchNorm2d(144, eps=0.001, momentum=0.010000000000000009, affine=True, track_running_stats=True)
        (_se_reduce): Conv2dSamePadding(144, 6, kernel_size=(1, 1), stride=(1, 1))
        (_se_expand): Conv2dSamePadding(6, 144, kernel_size=(1, 1), stride=(1, 1))
        (_project_conv): Conv2dSamePadding(144, 32, kernel_size=(1, 1), stride=(1, 1), bias=False)
        (_bn2): BatchNorm2d(32, eps=0.001, momentum=0.010000000000000009, affine=True, track_running_stats=True)
      )
      (3-4): 2 x MBConvBlock(
        (_expand_conv): Conv2dSamePadding(32, 192, kernel_size=(1, 1), stride=(1, 1), bias=False)
        (_bn0): BatchNorm2d(192, eps=0.001, momentum=0.010000000000000009, affine=True, track_running_stats=True)
        (_depthwise_conv): Conv2dSamePadding(192, 192, kernel_size=(3, 3), stride=(1, 1), groups=192, bias=False)
        (_bn1): BatchNorm2d(192, eps=0.001, momentum=0.010000000000000009, affine=True, track_running_stats=True)
        (_se_reduce): Conv2dSamePadding(192, 8, kernel_size=(1, 1), stride=(1, 1))
        (_se_expand): Conv2dSamePadding(8, 192, kernel_size=(1, 1), stride=(1, 1))
        (_project_conv): Conv2dSamePadding(192, 32, kernel_size=(1, 1), stride=(1, 1), bias=False)
        (_bn2): BatchNorm2d(32, eps=0.001, momentum=0.010000000000000009, affine=True, track_running_stats=True)
      )
      (5): MBConvBlock(
        (_expand_conv): Conv2dSamePadding(32, 192, kernel_size=(1, 1), stride=(1, 1), bias=False)
        (_bn0): BatchNorm2d(192, eps=0.001, momentum=0.010000000000000009, affine=True, track_running_stats=True)
        (_depthwise_conv): Conv2dSamePadding(192, 192, kernel_size=(5, 5), stride=[2, 2], groups=192, bias=False)
        (_bn1): BatchNorm2d(192, eps=0.001, momentum=0.010000000000000009, affine=True, track_running_stats=True)
        (_se_reduce): Conv2dSamePadding(192, 8, kernel_size=(1, 1), stride=(1, 1))
        (_se_expand): Conv2dSamePadding(8, 192, kernel_size=(1, 1), stride=(1, 1))
        (_project_conv): Conv2dSamePadding(192, 48, kernel_size=(1, 1), stride=(1, 1), bias=False)
        (_bn2): BatchNorm2d(48, eps=0.001, momentum=0.010000000000000009, affine=True, track_running_stats=True)
      )
      (6-7): 2 x MBConvBlock(
        (_expand_conv): Conv2dSamePadding(48, 288, kernel_size=(1, 1), stride=(1, 1), bias=False)
        (_bn0): BatchNorm2d(288, eps=0.001, momentum=0.010000000000000009, affine=True, track_running_stats=True)
        (_depthwise_conv): Conv2dSamePadding(288, 288, kernel_size=(5, 5), stride=(1, 1), groups=288, bias=False)
        (_bn1): BatchNorm2d(288, eps=0.001, momentum=0.010000000000000009, affine=True, track_running_stats=True)
        (_se_reduce): Conv2dSamePadding(288, 12, kernel_size=(1, 1), stride=(1, 1))
        (_se_expand): Conv2dSamePadding(12, 288, kernel_size=(1, 1), stride=(1, 1))
        (_project_conv): Conv2dSamePadding(288, 48, kernel_size=(1, 1), stride=(1, 1), bias=False)
        (_bn2): BatchNorm2d(48, eps=0.001, momentum=0.010000000000000009, affine=True, track_running_stats=True)
      )
      (8): MBConvBlock(
        (_expand_conv): Conv2dSamePadding(48, 288, kernel_size=(1, 1), stride=(1, 1), bias=False)
        (_bn0): BatchNorm2d(288, eps=0.001, momentum=0.010000000000000009, affine=True, track_running_stats=True)
        (_depthwise_conv): Conv2dSamePadding(288, 288, kernel_size=(3, 3), stride=[2, 2], groups=288, bias=False)
        (_bn1): BatchNorm2d(288, eps=0.001, momentum=0.010000000000000009, affine=True, track_running_stats=True)
        (_se_reduce): Conv2dSamePadding(288, 12, kernel_size=(1, 1), stride=(1, 1))
        (_se_expand): Conv2dSamePadding(12, 288, kernel_size=(1, 1), stride=(1, 1))
        (_project_conv): Conv2dSamePadding(288, 96, kernel_size=(1, 1), stride=(1, 1), bias=False)
        (_bn2): BatchNorm2d(96, eps=0.001, momentum=0.010000000000000009, affine=True, track_running_stats=True)
      )
      (9-12): 4 x MBConvBlock(
        (_expand_conv): Conv2dSamePadding(96, 576, kernel_size=(1, 1), stride=(1, 1), bias=False)
        (_bn0): BatchNorm2d(576, eps=0.001, momentum=0.010000000000000009, affine=True, track_running_stats=True)
        (_depthwise_conv): Conv2dSamePadding(576, 576, kernel_size=(3, 3), stride=(1, 1), groups=576, bias=False)
        (_bn1): BatchNorm2d(576, eps=0.001, momentum=0.010000000000000009, affine=True, track_running_stats=True)
        (_se_reduce): Conv2dSamePadding(576, 24, kernel_size=(1, 1), stride=(1, 1))
        (_se_expand): Conv2dSamePadding(24, 576, kernel_size=(1, 1), stride=(1, 1))
        (_project_conv): Conv2dSamePadding(576, 96, kernel_size=(1, 1), stride=(1, 1), bias=False)
        (_bn2): BatchNorm2d(96, eps=0.001, momentum=0.010000000000000009, affine=True, track_running_stats=True)
      )
      (13): MBConvBlock(
        (_expand_conv): Conv2dSamePadding(96, 576, kernel_size=(1, 1), stride=(1, 1), bias=False)
        (_bn0): BatchNorm2d(576, eps=0.001, momentum=0.010000000000000009, affine=True, track_running_stats=True)
        (_depthwise_conv): Conv2dSamePadding(576, 576, kernel_size=(5, 5), stride=[1, 1], groups=576, bias=False)
        (_bn1): BatchNorm2d(576, eps=0.001, momentum=0.010000000000000009, affine=True, track_running_stats=True)
        (_se_reduce): Conv2dSamePadding(576, 24, kernel_size=(1, 1), stride=(1, 1))
        (_se_expand): Conv2dSamePadding(24, 576, kernel_size=(1, 1), stride=(1, 1))
        (_project_conv): Conv2dSamePadding(576, 136, kernel_size=(1, 1), stride=(1, 1), bias=False)
        (_bn2): BatchNorm2d(136, eps=0.001, momentum=0.010000000000000009, affine=True, track_running_stats=True)
      )
      (14-17): 4 x MBConvBlock(
        (_expand_conv): Conv2dSamePadding(136, 816, kernel_size=(1, 1), stride=(1, 1), bias=False)
        (_bn0): BatchNorm2d(816, eps=0.001, momentum=0.010000000000000009, affine=True, track_running_stats=True)
        (_depthwise_conv): Conv2dSamePadding(816, 816, kernel_size=(5, 5), stride=(1, 1), groups=816, bias=False)
        (_bn1): BatchNorm2d(816, eps=0.001, momentum=0.010000000000000009, affine=True, track_running_stats=True)
        (_se_reduce): Conv2dSamePadding(816, 34, kernel_size=(1, 1), stride=(1, 1))
        (_se_expand): Conv2dSamePadding(34, 816, kernel_size=(1, 1), stride=(1, 1))
        (_project_conv): Conv2dSamePadding(816, 136, kernel_size=(1, 1), stride=(1, 1), bias=False)
        (_bn2): BatchNorm2d(136, eps=0.001, momentum=0.010000000000000009, affine=True, track_running_stats=True)
      )
      (18): MBConvBlock(
        (_expand_conv): Conv2dSamePadding(136, 816, kernel_size=(1, 1), stride=(1, 1), bias=False)
        (_bn0): BatchNorm2d(816, eps=0.001, momentum=0.010000000000000009, affine=True, track_running_stats=True)
        (_depthwise_conv): Conv2dSamePadding(816, 816, kernel_size=(5, 5), stride=[2, 2], groups=816, bias=False)
        (_bn1): BatchNorm2d(816, eps=0.001, momentum=0.010000000000000009, affine=True, track_running_stats=True)
        (_se_reduce): Conv2dSamePadding(816, 34, kernel_size=(1, 1), stride=(1, 1))
        (_se_expand): Conv2dSamePadding(34, 816, kernel_size=(1, 1), stride=(1, 1))
        (_project_conv): Conv2dSamePadding(816, 232, kernel_size=(1, 1), stride=(1, 1), bias=False)
        (_bn2): BatchNorm2d(232, eps=0.001, momentum=0.010000000000000009, affine=True, track_running_stats=True)
      )
      (19-23): 5 x MBConvBlock(
        (_expand_conv): Conv2dSamePadding(232, 1392, kernel_size=(1, 1), stride=(1, 1), bias=False)
        (_bn0): BatchNorm2d(1392, eps=0.001, momentum=0.010000000000000009, affine=True, track_running_stats=True)
        (_depthwise_conv): Conv2dSamePadding(1392, 1392, kernel_size=(5, 5), stride=(1, 1), groups=1392, bias=False)
        (_bn1): BatchNorm2d(1392, eps=0.001, momentum=0.010000000000000009, affine=True, track_running_stats=True)
        (_se_reduce): Conv2dSamePadding(1392, 58, kernel_size=(1, 1), stride=(1, 1))
        (_se_expand): Conv2dSamePadding(58, 1392, kernel_size=(1, 1), stride=(1, 1))
        (_project_conv): Conv2dSamePadding(1392, 232, kernel_size=(1, 1), stride=(1, 1), bias=False)
        (_bn2): BatchNorm2d(232, eps=0.001, momentum=0.010000000000000009, affine=True, track_running_stats=True)
      )
      (24): MBConvBlock(
        (_expand_conv): Conv2dSamePadding(232, 1392, kernel_size=(1, 1), stride=(1, 1), bias=False)
        (_bn0): BatchNorm2d(1392, eps=0.001, momentum=0.010000000000000009, affine=True, track_running_stats=True)
        (_depthwise_conv): Conv2dSamePadding(1392, 1392, kernel_size=(3, 3), stride=[1, 1], groups=1392, bias=False)
        (_bn1): BatchNorm2d(1392, eps=0.001, momentum=0.010000000000000009, affine=True, track_running_stats=True)
        (_se_reduce): Conv2dSamePadding(1392, 58, kernel_size=(1, 1), stride=(1, 1))
        (_se_expand): Conv2dSamePadding(58, 1392, kernel_size=(1, 1), stride=(1, 1))
        (_project_conv): Conv2dSamePadding(1392, 384, kernel_size=(1, 1), stride=(1, 1), bias=False)
        (_bn2): BatchNorm2d(384, eps=0.001, momentum=0.010000000000000009, affine=True, track_running_stats=True)
      )
      (25): MBConvBlock(
        (_expand_conv): Conv2dSamePadding(384, 2304, kernel_size=(1, 1), stride=(1, 1), bias=False)
        (_bn0): BatchNorm2d(2304, eps=0.001, momentum=0.010000000000000009, affine=True, track_running_stats=True)
        (_depthwise_conv): Conv2dSamePadding(2304, 2304, kernel_size=(3, 3), stride=(1, 1), groups=2304, bias=False)
        (_bn1): BatchNorm2d(2304, eps=0.001, momentum=0.010000000000000009, affine=True, track_running_stats=True)
        (_se_reduce): Conv2dSamePadding(2304, 96, kernel_size=(1, 1), stride=(1, 1))
        (_se_expand): Conv2dSamePadding(96, 2304, kernel_size=(1, 1), stride=(1, 1))
        (_project_conv): Conv2dSamePadding(2304, 384, kernel_size=(1, 1), stride=(1, 1), bias=False)
        (_bn2): BatchNorm2d(384, eps=0.001, momentum=0.010000000000000009, affine=True, track_running_stats=True)
      )
    )
  )
  (box_head): SSDBoxHead(
    (predictor): SSDBoxPredictor(
      (cls_headers): ModuleList(
        (0): Conv2d(48, 12, kernel_size=(3, 3), stride=(1, 1), padding=(1, 1))
        (1): Conv2d(136, 18, kernel_size=(3, 3), stride=(1, 1), padding=(1, 1))
        (2): Conv2d(384, 18, kernel_size=(3, 3), stride=(1, 1), padding=(1, 1))
        (3): Conv2d(256, 18, kernel_size=(3, 3), stride=(1, 1), padding=(1, 1))
        (4-5): 2 x Conv2d(256, 12, kernel_size=(3, 3), stride=(1, 1), padding=(1, 1))
      )
      (reg_headers): ModuleList(
        (0): Conv2d(48, 16, kernel_size=(3, 3), stride=(1, 1), padding=(1, 1))
        (1): Conv2d(136, 24, kernel_size=(3, 3), stride=(1, 1), padding=(1, 1))
        (2): Conv2d(384, 24, kernel_size=(3, 3), stride=(1, 1), padding=(1, 1))
        (3): Conv2d(256, 24, kernel_size=(3, 3), stride=(1, 1), padding=(1, 1))
        (4-5): 2 x Conv2d(256, 16, kernel_size=(3, 3), stride=(1, 1), padding=(1, 1))
      )
    )
    (loss_evaluator): MultiBoxLoss()
  )
)